…
2023-05-11 16:09:37,244 [MainThread  ] [INFO ]         loglevel : INFO
2023-05-11 16:09:37,246 [MainThread  ] [INFO ]  Checking/Download features and label s locally
2023-05-11 16:09:37,357 [MainThread  ] [INFO ]  Pre-compute clips
2023-05-11 16:09:50,886 [MainThread  ] [INFO ]  Checking/Download features and label s locally
2023-05-11 16:09:50,922 [MainThread  ] [INFO ]  Pre-compute clips
2023-05-11 16:09:55,123 [MainThread  ] [INFO ]  Checking/Download features and labels locally
2023-05-11 16:09:55,159 [MainThread  ] [INFO ]  Checking/Download features and labels locally
2023-05-11 16:09:55,607 [MainThread  ] [INFO ]  ContextAwareModel(
  (linear_input1): Linear(in_features=1024, out_features=768, bias=True)
  (linear_input2): Linear(in_features=768, out_features=512, bias=True)
  (conv_1): Conv2d(1, 128, kernel_size=(1, 512), stride=(1, 1))
  (conv_2): Conv2d(128, 32, kernel_size=(1, 1), stride=(1, 1))
  (pad_p_1): ZeroPad2d((0, 0, 5, 6))
  (pad_p_2): ZeroPad2d((0, 0, 13, 13))
  (pad_p_3): ZeroPad2d((0, 0, 19, 20))
  (pad_p_4): ZeroPad2d((0, 0, 39, 40))
  (conv_p_1): Conv2d(32, 8, kernel_size=(12, 1), stride=(1, 1))
  (conv_p_2): Conv2d(32, 16, kernel_size=(27, 1), stride=(1, 1))
  (conv_p_3): Conv2d(32, 32, kernel_size=(40, 1), stride=(1, 1))
  (conv_p_4): Conv2d(32, 64, kernel_size=(80, 1), stride=(1, 1))
  (pad_seg): ZeroPad2d((0, 0, 1, 1))
  (conv_seg): Conv2d(152, 272, kernel_size=(3, 1), stride=(1, 1))
  (batch_seg): BatchNorm2d(240, eps=0.001, momentum=0.01, affine=True, track_running_stats=True)
  (max_pool_spot): MaxPool2d(kernel_size=(3, 1), stride=(2, 1), padding=0, dilation=1, ceil_mode=False)
  (pad_spot_1): ZeroPad2d((0, 0, 1, 1))
  (conv_spot_1): Conv2d(289, 32, kernel_size=(3, 1), stride=(1, 1))
  (max_pool_spot_1): MaxPool2d(kernel_size=(3, 1), stride=(2, 1), padding=0, dilation=1, ceil_mode=False)
  (pad_spot_2): ZeroPad2d((0, 0, 1, 1))
  (conv_spot_2): Conv2d(32, 16, kernel_size=(3, 1), stride=(1, 1))
  (max_pool_spot_2): MaxPool2d(kernel_size=(3, 1), stride=(2, 1), padding=0, dilation=1, ceil_mode=False)
  (conv_conf): Conv2d(464, 30, kernel_size=(1, 1), stride=(1, 1))
  (conv_class): Conv2d(464, 255, kernel_size=(1, 1), stride=(1, 1))
  (softmax): Softmax(dim=-1)
)
2023-05-11 16:09:55,608 [MainThread  ] [INFO ]  Total number of parameters: 1759173
2023-05-11 16:09:55,608 [MainThread  ] [INFO ]  start training
2023-05-11 16:18:46,266 [MainThread  ] [INFO ]  Validation performance at epoch 21 -> 0.017338973209964564
2023-05-11 16:18:52,179 [MainThread  ] [INFO ]  Test performance at epoch 21 -> 0.017338973209964564
…
